models/final.pt (torch_old, 442932 bytes, 11 tensors)

weight f4 [32, 4, 5, 5]
00000000: 8e2d a83d 3980 1a3e 7568 073e ac3a 69bc
00000010: dfa7 f63c 8e16 20bd d311 42bd c1be 63bd
00000020: 4c7b b8bd d32d 663d 0b06 253e 7c49 d3bd
00000030: da0a e83b 9215 bdbd efad ca3d 71ad 6b3d
00000040: 41d9 fabb d648 a6bc d8a6 cf3d cf0f 113d
00000050: b96d 94bd f141 b83d 3e49 3cbc f174 053d
00000060: 0b91 143e f128 c13d 8f45 783c cf27 6b3d
00000070: 2e1c c9bc 2f36 923d 9158 f2bd 1605 6cbd
00000080: 8765 0e3c e99b d7bd 743d 05be e1ef 933d
00000090: 8004 b93c a5bd 2bbd 0fd6 123d c947 49bc
000000a0: 932c a63d 7018 95bc 5957 fc3d 9f64 8fbd
000000b0: 9438 8c3c 44f5 6ebd e09e 4f3d 423c a03d
000000c0: 1015 af3c 9007 463b 14d4 05bd 95e9 dd39
000000d0: fe0d b93c 2f64 2fbd 346b dbba 5aea 5cbd
000000e0: 6ce1 a63c 07b0 cebc ead0 76bc 7b61 98bc
000000f0: 2963 c5bd 9ef2 643d 5f8a 973c e41c f33b
00000100: 6f0b b3bb 8f48 98bc 9e6f 603d 08bf dd3c
00000110: c236 b73a 4abc ec3b 96e9 c63c 3bf4 55bd
00000120: e32a ad3b c444 9dbb ca36 0e3d 55ef a5bd
00000130: 01f8 0d3d 00d7 883d a1e2 4bbc e8cf c93b
00000140: 3b9a e43c 56dc 013d 4263 9dbd 7dd1 84bc
00000150: 1276 6e3d 63d4 1c3c 7d02 0fbd 4ced 8f3d
00000160: 19ee 5d3d 826a 17bd 9067 85bc 09e4 003d
00000170: 49b9 053d e155 b7bc d288 7dbc 31ae a2b9
00000180: 56ee b0bd 5345 f23c 3666 a53b f1de 14bd
00000190: 6502 333a a8f4 803d 4b2c b5bd e9b8 943d
000001a0: c76e a2bd 8c90 553d e670 273e ec21 43bd
000001b0: 4a87 a5bc 5574 27bd 491f a03c 81e9 483d
000001c0: 9d17 043d 5743 1ebd 5783 12bc bb12 40bd
000001d0: aaf0 cc3c 6316 9bbd cbea 51bd 2317 8d3d
000001e0: ef5a 66bd 53da 4a3d c2ca 773d 894c 02bd
000001f0: 7b31 b3ba 944b c33c 52cf 22bd 6044 3fbc
00000200: 794e b3bd 049f 8a3c 038a 093d 1699 4dbd
00000210: 79ac f33c c22d b5bd 91c1 f83c a79d 363d
00000220: d024 20bd d4f4 113c 379c 84bd d15f ff3c
00000230: 7f01 623d 9779 27bc 66b1 103d 6e4d c0bc
00000240: 5fbb 0f3d b640 063d fbc7 efbb 1e00 99ba
00000250: 39b9 67bd 33fc c93b 7a1d 9fbc fce0 dbbc
00000260: 1573 5f3c cc0f 97bb e541 a63b 97fc 78bc
00000270: aa26 1a3c 6b85 8a3c 146e 8e3c 5b1e 093c
00000280: d39c b03b 9e81 5c3c 18ba e9bb 1be2 00bb
00000290: f713 8abb b944 bd3c 6d8d 71bc 7293 fa3b
000002a0: 2192 15bb d390 62b9 3587 91bc 64ba e33a
000002b0: 3a66 853c d50e 39bb fc85 79ba 2f30 873c
000002c0: 81fc 3dbd 3a44 ef3b 1260 7eba 5792 c53a
000002d0: 03b2 3a3b f507 743b 3f4e 673c 5bc7 323b
000002e0: 851a dcbc d0bd 90bc 5d44 493c 1cd8 6fbc
000002f0: e8b7 af3c cd59 bdb9 5897 a1bb 1351 823c
00000300: a14c 5c3c 3403 3b3b 60c8 f33b 2fe8 2d3b
00000310: ccb8 6c3c 24af 78ba 119f aa3c f104 a1bb
00000320: 02ea 99bd 76fe bdbd bb7d 3fbb e12d fe3c
00000330: f7af 78bd 9dca 053d f872 04be 6ab5 103c
00000340: 4058 1d3e 4d6d 35be 0783 52bb 5132 3dbc
00000350: 6237 adbd 02da fd3d 9099 803d df7d 093d
00000360: 2c93 b8bd 4dc5 b1bc bc1f be3d e188 27bc
00000370: 6569 043e b039 563c 621a cfba 73b1 09bd
00000380: 6550 013d a3f8 65bd 2ca5 aebd a1b8 d2bc
00000390: 982b a7bd f272 59bc 7156 eabc 23a0 b13d
000003a0: ace1 1b3d a197 8dbd f3e5 3f3d 5196 e5bc
000003b0: ab94 9ebd ebfc a5bd e183 f6bc 4993 b7bb
000003c0: 02a3 633d 817f c03c 94e3 113e 8520 6f3d
000003d0: 2e04 083c cf5e 66bd 896f ae3c 7a0c ba3d
000003e0: ebeb a6bd 4cd6 3fbd 1844 40bc 5728 ecbc
000003f0: fa95 19bc e9d0 3e3c 499f 8f3b c904 a7bb
0.08211814 0.15087976 0.13223441 -0.01423518 0.030109344 -0.03908401 -0.04738028 -0.05560184
-0.09007892 0.056196045 0.16115586 -0.103167504 0.0070813717 -0.0923263 0.098964565 0.057538453
-0.007655293 -0.020298403 0.10139245 0.035415467 -0.072474904 0.08996952 -0.011492072 0.032582227
0.14508455 0.09431637 0.015153303 0.05741101 -0.02454957 0.07139241 -0.11833299 -0.057622038
0.008691198 -0.105277844 -0.13011724 0.07223488 0.022585154 -0.041928906 0.035848673 -0.012285181
0.081139706 -0.01820013 0.12321348 -0.07001614 0.017116822 -0.058339372 0.050688624 0.07823993
0.021372348 0.003021691 -0.032672957 0.00042326437 0.02258968 -0.042820152 -0.0016740323 -0.053934433
0.020371161 -0.02523042 -0.015064457 -0.01860117 -0.09638054 0.05589544 0.018498598 0.0074192155
-0.0054640095 -0.018589286 0.054793946 0.02706863 0.0013978111 0.0072245942 0.024281304 -0.05223487
0.0052846535 -0.0047994573 0.03472022 -0.081022896 0.034660343 0.06681633 -0.012444169 0.0061588176
0.027905574 0.03170427 -0.076849476 -0.016213173 0.05821807 0.009572121 -0.034914482 0.07027683
0.054182146 -0.03696681 -0.016284734 0.03146747 0.032647405 -0.022379817 -0.015474515 -0.0003102883
-0.08639209 0.029574072 0.005047585 -0.036345426 0.0006828665 0.062966645 -0.08846339 0.07261831
-0.07931285 0.052139804 0.16351661 -0.047639772 -0.020206112 -0.040882427 0.019546168 0.04905081
0.032249082 -0.03863844 -0.008942447 -0.046892863 0.025017101 -0.07572629 -0.051249307 0.068891786
-0.056239065 0.049524616 0.0604961 -0.03181127 -0.0013671363 0.02383975 -0.039748497 -0.011674017
-0.08755202 0.016921528 0.033578884 -0.050194822 0.029745327 -0.08846618 0.030365737 0.044583943
-0.039097607 0.008908469 -0.06475108 0.031173619 0.055177208 -0.01022186 0.03532543 -0.023474421
0.0350908 0.032776557 -0.0073175407 -0.0011673009 -0.056573126 0.0061640977 -0.019423235 -0.02684068
0.013638278 -0.0046100374 0.005073773 -0.015196941 0.009408632 0.016909322 0.017386474 0.008369054
0.0053897887 0.0134586375 -0.00713278 -0.001966602 -0.004213806 0.023104059 -0.014743191 0.0076469714
-0.0022822695 -0.00021606991 -0.017764667 0.0017374274 0.016284097 -0.00282376 -0.00095185614 0.016502468
-0.046383385 0.0073018344 -0.00097036466 0.001507352 0.002848745 0.0037236188 0.014117776 0.002727947
-0.026868114 -0.017668635 0.0122843655 -0.014638927 0.021449998 -0.00036115796 -0.0049313717 0.0159078
0.013446004 0.0028535845 0.007439658 0.0026536097 0.014448356 -0.0009486547 0.020827802 -0.004913919
-0.075153366 -0.0927705 -0.0029219228 0.031027736 -0.06071469 0.03266393 -0.12934482 0.008832315
0.15365696 -0.17717476 -0.0032121555 -0.011547641 -0.08457829 0.12395097 0.0627929 0.033567306
-0.09012446 -0.021700526 0.092833966 -0.010225506 0.1293083 0.013075277 -0.0015800709 -0.033616494
0.03157081 -0.05614532 -0.08527598 -0.025722804 -0.08162612 -0.013272034 -0.028605672 0.08673122
0.038057014 -0.069136865 0.046850156 -0.028025778 -0.077432 -0.08104881 -0.030092182 -0.0056022746
0.05557538 0.023498299 0.1424697 0.058380622 0.008301778 -0.05624276 0.021293418 0.09084411
-0.081504665 -0.04683523 -0.011734985 -0.02882783 -0.009374136 0.011646488 0.004383002 -0.005097006

bias f4 [32]
00000000: dc75 79bd 2d3f 9d3d a647 193e 6234 eabd
00000010: 645b ff3c 3141 fc3d 6742 2a3d 3af7 863d
00000020: 5442 2ebe e46e 20bc 99e5 a93d fc8c df3d
00000030: a8e2 f23d d4c6 c1bc a8d5 e1bd 8cec 97bb
00000040: 5be1 8bbd d524 47bc 848e ae3d 4659 093c
00000050: 4d79 003e db39 f0bc 496a 903d a9e3 223e
00000060: 83cc e0bc 147f 8739 0ff6 a1bc d41b 02be
00000070: 691b 493c d8d6 81be 4eb3 4f3e 414b bb3d
-0.060903415 0.076780654 0.14968738 -0.114357725 0.031171508 0.12317122 0.041567232 0.065901235
-0.1701749 -0.009792063 0.082957454 0.109155625 0.118596375 -0.023654379 -0.1102708 -0.004636353
-0.068300925 -0.0121547775 0.085232764 0.008383101 0.12546273 -0.029324463 0.07051522 0.15907158
-0.027441269 0.00025843887 -0.01977065 -0.12705928 0.0122746015 -0.25359225 0.20283243 0.09145213

weight f4 [32, 32, 5, 5]
00000000: 79d8 b03a 79f3 f53b 4f4f 963b 714c 08bc
00000010: ebc8 b83b be74 963c 3e6c 9cba cfd6 f53b
00000020: 2a0a 9fbb 1daa 5b3c 6313 1bbc d836 e8ba
00000030: e35a 25bc 627a ad3a 211d 97bc 906b 2bb9
00000040: 4ff8 333c e559 a63c 99fa db3c 5eed 113c
00000050: c80f 51bc 27d5 4439 33cd fbbb c1f3 57bc
00000060: 3883 8bbc f9ea b13b f91d 5bb8 67db febb
00000070: d505 83ba 777e 9a3b e434 84bc 8d4c 3ebc
00000080: 1deb 633b 9619 a13b ee8e 4a3c 51d2 0abc
00000090: ff2a 2eba 5903 a1bc 2882 bb3b e8b5 e53b
000000a0: 42aa 68bc 5593 ee3a 9ec8 e5bb dd22 f3bb
000000b0: f9e0 83bb 3c83 093c fedf 7fbc 30fa 043c
000000c0: ed9b bfbb 6771 123c 9352 ccbb c07b be3c
000000d0: 0fd8 0d3c 744e a9bb 45b0 deba 6889 1cbc
000000e0: 8ade 13bb 8aa0 a3bc b07a 25bc ca39 1cbc
000000f0: a3e3 8fbc 1f52 0c3c 23d6 883c 247a 80bb
00000100: 2462 0a3c 2f7b bc3b 98a5 0cbc 1187 d9bb
00000110: 1371 dabb ab99 e6bb 5dfd 203b 3e8b a5bb
00000120: 840f 843a fbfa efba 30ed 083c 6c50 8c3c
00000130: 9e92 ac3b 66dd 193a dcb6 ce3b 9e60 c53c
00000140: 42ec 90bc f7d9 3f3c cb05 f638 ec65 cc3b
00000150: 1f13 933b deb5 8d3c 973d 95ba ea38 07bb
00000160: f6dc 533b 0b74 3ebc 8efc 33bb 666e 9a3c
00000170: 2642 643c c8e8 3b3c ce82 5e3c 8c75 5aba
00000180: 8c58 92bb a2e8 11bb 23f1 833a 07d9 2b3b
00000190: 6070 29bc c939 903b 0c0b f5ba 1672 3fba
000001a0: e217 91bc 5e5f 153c fc0d 1fbc f4e4 3c3b
000001b0: 3bad c63b 3b24 763b e302 123c b832 323c
000001c0: 7dbd 033c 0f54 69bc f6bd adbb ec6b e4bc
000001d0: 3a53 44bc 978b 7fbb f639 993b 7172 08bc
000001e0: 77b4 6e3b 7cec 4c3c 9947 49bb b5ea 1fbc
000001f0: b5ee 29bc 8756 da3b 9098 68bb b8a2 db3c
00000200: 3b4d 6f3b ae13 843c c0e2 58bb 0994 47bc
00000210: acb3 42bb 22c6 d3bc f71c dcbb 98bc fc3a
00000220: b6db b73b eb60 3cbc 0748 a1ba bef5 463c
00000230: ffbf 9c3a 6403 b33c 2e5a a8bc 6641 6f3b
00000240: c6ba 473c 9732 743b 5c92 8dbb c360 ebbb
00000250: a5d3 7c3c 3065 85bc 56e8 bb3b 74a7 d9bc
00000260: 3352 54bc 7aa2 3b3b 50b4 4f3c f549 3e3c
00000270: 05d0 863b d854 a83b fd78 beba af38 d5ba
00000280: 1f3f e73b e371 04bc 0a63 a3bb 667e a0bb
00000290: 7c44 343c 4d47 bd3b 911a be3b 2611 423b
000002a0: 3c99 93ba 6c72 d5bc 3df5 d2ba 8309 95bb
000002b0: 3d69 b93b ead1 91bb a484 6d3c ddf1 04b9
000002c0: 7d22 783c b7d8 e43b fbbb 843c 0241 7abb
000002d0: 79de 93bb 731a 42bb 5833 4d3c bd7f 92bb
000002e0: 5360 993c e647 fe3b 90e6 7cbb 8b35 1dbc
000002f0: b323 e93b 9992 663c 12c1 80bb f060 993b
00000300: c448 ff3a 12e5 bb3c 06dc efba 4b1d 473a
00000310: 4c41 8dbc d626 7ebb a574 78bb 5d6e 50bb
00000320: 958c 233c f688 7c3c a0fd 04bb e063 093b
00000330: ea55 86bb 85c3 cbbb eb57 45bc ca80 84bb
00000340: f5d8 95bb e7b3 9bbb e478 ae3b aed3 e73b
00000350: 9bf5 443c cc14 91bb 9962 f43c 4306 723b
00000360: 3e82 9bbc 4ad6 96bb 7ae9 71bc 30eb efb8
00000370: b2d6 29bb 2a8d 503c f3de 303c 2f90 673b
00000380: 860e fa3a f079 0c3b 46de 97b9 ff2e 16ba
00000390: 21b0 33bc 347c 83bb 6b5f 5fbc b82d 17bc
000003a0: 1686 943b 9a97 ff3a 4d60 0a3c a456 86bc
000003b0: 0efc 093c d676 a8ba 70c4 e6bb ba66 6fbc
000003c0: 23c6 90bb c2f7 793c fa57 bebc 4049 d1bb
000003d0: 62fb 733c 6920 dbba 8987 00bc 9e3f f0bb
000003e0: ecfc 7b3c 398c debb 8ea1 89bc 9c90 d03a
000003f0: c188 803c 5a24 17bb 036e c93b 9f28 14bc
0.0013492248 0.007505831 0.004587091 -0.008319006 0.0056391857 0.018366214 -0.0011934114 0.007502414
-0.0048535066 0.013407257 -0.009465071 -0.001771654 -0.01009247 0.0013235325 -0.018446507 -0.00016347901
0.010984494 0.020306537 0.026852893 0.00890669 -0.01276011 0.00018771422 -0.0076843738 -0.013180674
-0.017030343 0.0054296223 -5.2241583e-05 -0.0077776196 -0.0009996245 0.004714783 -0.016138501 -0.011614931
0.003477759 0.00491638 0.012363179 -0.008472995 -0.000664398 -0.019654917 0.005722303 0.0070102103
-0.014200749 0.0018201867 -0.007012441 -0.0074199275 -0.0040246216 0.008393105 -0.015617369 0.00811629
-0.005847445 0.00893817 -0.0062354296 0.023252368 0.008657469 -0.005166823 -0.0016989788 -0.009554245
-0.0022563064 -0.019974012 -0.010100052 -0.009535262 -0.0175646 0.008564501 0.01670367 -0.0039208103
0.00844625 0.0057519893 -0.0085844025 -0.0066384156 -0.0066663115 -0.0070373616 0.0024565079 -0.0050519994
0.0010075425 -0.0018309051 0.008357331 0.017128192 0.0052665016 0.0005869478 0.0063084196 0.024093922
-0.017690782 0.011709682 0.00011731273 0.006237736 0.0044883634 0.017298635 -0.0011386153 -0.0020633289
0.0032327748 -0.0116243465 -0.0027463767 0.01885147 0.013931787 0.011469074 0.013580991 -0.0008333556
-0.004466122 -0.0022263904 0.0010066371 0.0026221888 -0.010341734 0.00440142 -0.0018695309 -0.0007303072
-0.017711584 0.009116976 -0.009707924 0.002882299 0.006063131 0.0037558216 0.008911821 0.01087635
0.008040783 -0.014241233 -0.005302186 -0.027883492 -0.011982733 -0.0038993114 0.004676099 -0.008328066
0.0036423483 0.012507554 -0.0030712842 -0.009760548 -0.010371854 0.006663147 -0.0035491325 0.026810989
0.0036514539 0.016122665 -0.0033094138 -0.01218129 -0.0029709144 -0.025851313 -0.00671732 0.001928228
0.0056109084 -0.011497716 -0.0012304791 0.01214355 0.0011959075 0.021852203 -0.020550814 0.0036507486
0.012190526 0.00372616 -0.004320426 -0.0071831658 0.015431319 -0.016283602 0.0057344837 -0.026569106
-0.012959051 0.002863078 0.012677267 0.011614312 0.0041141533 0.0051370673 -0.0014531907 -0.0016267503
0.007057085 -0.008083793 -0.0049861716 -0.0048978804 0.011002656 0.005776322 0.005801507 0.0029612272
-0.0011260877 -0.026055537 -0.0016094815 -0.004548253 0.0056582973 -0.0044500725 0.014496956 -0.00012678602
0.015144941 0.0069838422 0.016202917 -0.003818572 -0.004512605 -0.0029617816 0.012524448 -0.004470794
0.018722689 0.007760036 -0.0038589574 -0.009595285 0.0071148514 0.014073038 -0.003929266 0.0046807453
0.0019476642 0.022936378 -0.0018299825 0.00075956126 -0.01724305 -0.0038780472 -0.0037911322 -0.0031804063
0.009982248 0.015413513 -0.0020292774 0.002096407 -0.004099597 -0.006218376 -0.012044887 -0.004043673
-0.0045729824 -0.0047516706 0.00532447 0.0070747947 0.0120214475 -0.004427528 0.029832171 0.0036930002
-0.018983003 -0.004603182 -0.014765138 -0.00011440215 -0.0025915322 0.012728969 0.010795343 0.0035333743
0.0019077815 0.0021434985 -0.0002896657 -0.0005729049 -0.010967285 -0.004012609 -0.013633589 -0.009227209
0.004532586 0.0019500137 0.008445811 -0.016398735 0.008421911 -0.0012852799 -0.00704246 -0.014611894
-0.004418151 0.015256824 -0.02323531 -0.006386906 0.014891477 -0.0016718033 -0.007844814 -0.0073318025
0.0153801255 -0.006791618 -0.016800668 0.0015912238 0.01569021 -0.0023062439 0.0061471476 -0.009042888

bias f4 [32]
00000000: 821c 783c d394 4f3c 5be3 a0bd 6b46 983c
00000010: de13 74bc b4c6 e33c 93cd 713c 2fc6 89bc
00000020: 87cb 70bd 297c 3bbd 3415 0e3b 7a9f 063c
00000030: 1da4 afbd f440 043c c091 663d 9fa2 61bb
00000040: 6980 6cbd 5c7e 00bd 67cb c53b 8a45 3b3c
00000050: ca17 b3bd f3e6 c23b 7845 8cbd 57c0 883b
00000060: 8f51 003b 7dd3 52bd 4794 6c3c e974 b63c
00000070: b0ac a2bd b9ff 813d 065e 8bbb 8ae8 2f3c
0.015143516 0.01266976 -0.078558646 0.018588265 -0.014897315 0.02780471 0.014758485 -0.016818134
-0.05878785 -0.045772705 0.0021680119 0.008216733 -0.08576224 0.008072127 0.05629134 -0.0034429205
-0.05773965 -0.031370506 0.0060362103 0.011430154 -0.08744772 0.0059479414 -0.068491876 0.0041733193
0.0019579863 -0.051471222 0.014439649 0.022272544 -0.07943094 0.06347603 -0.004253152 0.010736594

weight f4 [32, 32, 5, 5]
00000000: 0d8f 8f3b 754f 943b 2ead 27bb 3a10 e139
00000010: 3b01 45bc 4e2e 45bc 7151 60bc 36a1 823b
00000020: 00f9 65bc 48c2 4dbc e6ad c739 7dff 3d3c
00000030: 2182 62bb 7652 853c a5e9 fc3b 5471 b83b
00000040: ff4f faba 940d 06bc df7a 2339 baec 523b
00000050: e41a 293c 249d 563b 0ffb 3c3b da40 2a3c
00000060: f123 babb d11f 8dbb 9acd 7abb d166 153c
00000070: 77fd 2fbc d2be 4b3b c1d9 89bc d2cc bc3a
00000080: af3d 293c bca0 5ebc ddd6 03bb 5f7a 17bc
00000090: 73dc 71bc 8ba4 a03c 63cb 87bc 5799 4e3b
000000a0: 17f6 d93b 5a1f d238 d3bd ee3c cf3e 073c
000000b0: 32fa 00bc 5fa2 eb3b 42c4 3bbc 8887 2d3c
000000c0: ae38 ca3b 7e68 e23a c551 5e3c 3adc 683c
000000d0: 89b8 25bc 85ef 3b3c 82ab 90bc afe7 00bc
000000e0: 9c45 3cbd 5dd5 c9bc 997a febc 0274 af3c
000000f0: 2ae7 81bd 7211 513b 6fe7 a3bb 0b7a d43c
00000100: 6c1e d9bb 7008 67bb 35b0 ddbc 7135 d53c
00000110: 3046 6cbb 9a14 cf3b fa1d d2bc 372e f3ba
00000120: 3175 0cbd 76c4 9a3d 3510 643d 3311 1a3c
00000130: 5207 c93c 2e38 2a3c 4e76 1d3c f1a6 463b
00000140: 229e 743c 7f91 02bd b0b4 9abc bbc6 59bb
00000150: cf17 cc3c c5e7 56b9 bd91 acbb acbe 3f3c
00000160: bc78 d6bb 9eaa d03b 34fd d1ba 5915 bfbc
00000170: 5037 94bb a8d7 b7ba 5ed6 8e3c 62a2 b4bc
00000180: 0a24 603c bb40 8a3b b258 233b a726 c5bc
00000190: 5217 963c 3c49 0a3c 39d7 16bc 5e5c 93bb
000001a0: c555 dfbc 7608 4c3c 1286 853c 3dfd 7dbc
000001b0: e6cd 583a d879 23bc 0682 8db9 cf87 d93b
000001c0: 804b 823c 9d68 4bbb 3af6 163c d985 32bd
000001d0: 41bc 403c a278 b5bb 8bdc cfbb 2420 a1bc
000001e0: 9aaa ed3a b378 60bc 1ed0 ae3b 0d74 c2bb
000001f0: 4fd6 d93a a1f6 87bc 68e4 3b3c 5813 8eba
00000200: 0582 9cbc 1211 f43a 3b3d 623b fd4c 643c
00000210: 65a4 12bd bb64 8cbc 5627 393c ef80 d739
00000220: a9a9 2d3c c0fc e73b 1b4a 943c 6c23 4cbc
00000230: c7ba a9bc 8724 0cbb 9f2c 9cba a00a c63b
00000240: 28a2 31bc 086d 0e3d db07 423c b0db 19bb
00000250: f111 c8bc 5bba b03a 5738 93bc c148 a5bb
00000260: 20bb 4bbc c874 383c f0f8 053c b8d7 a7b9
00000270: ad87 273c b62e ba3a ff2d c03b 5758 e2bb
00000280: 0928 0ebb 6228 30bb bebc 3b3b fca2 4dbb
00000290: cf81 6c3b 20fc 463c a61b 5c3c 20e9 b5ba
000002a0: 33a5 0abc 5279 a4bb 4abe 4a3b 3a86 903c
000002b0: a3f9 b3bc 531a d03b 963e cabc ff55 aebb
000002c0: f903 773c 6035 a13b 6b50 f13b d879 11bb
000002d0: 43b2 70bb ce00 b43c 3028 29bc 29c5 ef3c
000002e0: 4109 91bc 5e0c 3e3c f0d8 b6bc 3c85 32bc
000002f0: edd3 29bc 0ab9 a5bc 2cb0 c33c 8dbb 623c
00000300: ba8a b33a 25d4 23bb c089 b0bb 7039 a33c
00000310: ef9d 2e3c e7d0 82bc d781 1c3c 0c21 a53b
00000320: 1d06 12bd f984 e8bc 671b cbbc 3f8f c53c
00000330: 0283 393c 12d3 40bc fd56 5d3a 9613 cebb
00000340: 1eda 333b eda9 503c 11cf fd3b eab4 2dbc
00000350: e641 863c fd2f 723c a46a adbc 8124 f3bb
00000360: 5ee1 923b ad03 03bc 4660 83bb 6087 dc3b
00000370: e501 d8bc 521d ac3b cd70 89bc 0f13 88bb
00000380: 0e14 86bd 33f9 c93c d864 07bb e6ce 4cbb
00000390: 47a4 203d 58e6 debb 8378 773d 4800 e23c
000003a0: 7c98 b63c fa2d 253d b645 32bb 76c8 613d
000003b0: 9b9b 873b 698b 1a3d 80c5 b9bc 1371 ab3c
000003c0: 651d 06bc ae06 1f3d f815 343c 6713 a43d
000003d0: efcc 523c 7b82 cc3c 734e c53d 8ac2 593d
000003e0: 5f46 153c 1e86 453d 0948 37bc 5c39 913a
000003f0: b5f4 77bb 9c99 58bc 4558 fa3a b22a c6bb
0.0043810667 0.0045260736 -0.00255854 0.00042927434 -0.012024219 -0.012034966 -0.013691292 0.003986503
-0.014036417 -0.012558527 0.00038085802 0.011596558 -0.0034562426 0.016274672 0.0077182823 0.005628744
-0.0019097327 -0.008181948 0.00015590664 0.0032184557 0.010321353 0.0032747472 0.0028836166 0.010391438
-0.005680554 -0.0043067713 -0.003826952 0.009118752 -0.010741583 0.003108908 -0.016827466 0.0014404303
0.010329648 -0.013588127 -0.0020117082 -0.009245484 -0.014762032 0.01960971 -0.016576475 0.0031524503
0.0066516506 0.0001001942 0.02914325 0.008254721 -0.007872151 0.007190987 -0.011460366 0.010591395
0.0061713075 0.0017273573 0.0135693 0.014212662 -0.010114797 0.01147068 -0.017659906 -0.007867738
-0.045964822 -0.024637872 -0.031064318 0.021417622 -0.06342919 0.0031901267 -0.0050019543 0.0259371
-0.006625941 -0.0035252832 -0.027061561 0.02602646 -0.0036052577 0.0063195946 -0.02564906 -0.0018553202
-0.03429145 0.07557003 0.05567952 0.009403515 0.024539623 0.010389371 0.009610726 0.0030311907
0.01493028 -0.031877037 -0.018884987 -0.0033230025 0.024913697 -0.00020494971 -0.005266397 0.011703175
-0.0065451544 0.0063679954 -0.0016020895 -0.023325609 -0.0045231953 -0.0014026063 0.017436203 -0.022050086
0.013680467 0.0042191423 0.0024924693 -0.024066282 0.018321667 0.008440312 -0.0092065865 -0.004497095
-0.027262578 0.012453189 0.016299281 -0.015502271 0.00082704274 -0.00997778 -0.0002699049 0.006638504
0.015905142 -0.0031037696 0.009213978 -0.04358468 0.011763633 -0.005538062 -0.0063434294 -0.019668646
0.0018132508 -0.013700652 0.005334868 -0.0059342445 0.0016619655 -0.016597094 0.0114680305 -0.0010839505
-0.019104967 0.001862081 0.003452136 0.013934371 -0.03580131 -0.017137876 0.011300882 0.0004110406
0.010599532 0.0070796907 0.018101742 -0.012459617 -0.020718945 -0.0021384077 -0.0011915154 0.006043747
-0.010841884 0.03477195 0.011842693 -0.0023476891 -0.024422618 0.0013483273 -0.0179712 -0.0050440733
-0.012434751 0.011258312 0.008177027 -0.00032013445 0.010225219 0.0014204595 0.005864858 -0.0069075036
-0.0021691343 -0.0026879539 0.0028646435 -0.0031377664 0.0036088114 0.012145072 0.013434326 -0.0013878681
-0.008462238 -0.0050193453 0.0030936175 0.01764213 -0.021969622 0.0063507943 -0.024688046 -0.00532031
0.015076631 0.004919693 0.007364323 -0.0022197869 -0.0036727346 0.02197304 -0.010324523 0.029268818
-0.017704608 0.011599628 -0.02232024 -0.010896023 -0.010365468 -0.020229835 0.023887716 0.013838661
0.001369796 -0.0024998274 -0.005387515 0.01992485 0.0106577715 -0.015968753 0.009552441 0.00503934
-0.03565036 -0.028383719 -0.02479334 0.024116157 0.011322739 -0.011769073 0.0008443443 -0.006288956
0.002744324 0.012735826 0.0077456315 -0.010602215 0.016388845 0.014781949 -0.021169014 -0.007420123
0.0044824323 -0.007996482 -0.0040092794 0.006730005 -0.02636809 0.0052525187 -0.01677742 -0.0041526626
-0.06546794 0.02465496 -0.0020659473 -0.003125125 0.039219167 -0.0068023615 0.060417663 0.027588025
0.022289507 0.04032705 -0.0027202195 0.055122815 0.0041384227 0.037730608 -0.022677183 0.020927941
-0.008185719 0.03882473 0.010991566 0.08011513 0.012866243 0.024964562 0.096341036 0.053164043
0.009111016 0.048223607 -0.011186608 0.0011079716 -0.0037835066 -0.013220217 0.0019099793 -0.00604757

bias f4 [32]
00000000: bbea ed38 4c22 27bd f404 46bb 7e67 7e3c
00000010: 8baf a3bc fd68 0a3c 8a9f 04bb e761 ef3b
00000020: 096d 9fbc 7ba3 81bc f46a 9fbc 9184 13bc
00000030: 5e40 803c b089 8f3c 0725 fe3c ad88 fe3a
00000040: c69e 96bc 644e adbd f72a 123c 1cc7 97bc
00000050: a7be 01bc c753 493b 810a 1a3c a8f2 b43b
00000060: 2756 1a3c e7b4 eabd 305a a139 8aeb 303c
00000070: b41f 2e3c fd7e 58bc f915 bb3a d684 88bb
0.000113447626 -0.040804192 -0.0030215355 0.015527604 -0.019981166 0.008447883 -0.0020236694 0.007305372
-0.019461172 -0.015825024 -0.019460179 -0.009003774 0.015655693 0.01752171 0.031023515 0.0019419395
-0.018386256 -0.084622175 0.008921376 -0.01852756 -0.00791899 0.0030720101 0.009401918 0.005522091
0.009419954 -0.11460286 0.00030775508 0.010798344 0.010627676 -0.01321387 0.0014273516 -0.004166226

weight f4 [32, 32, 5, 5]
00000000: 605f 2cbc 105e 3d3d 9015 6c3c b30e 753d
00000010: 2d64 2b3d 29e4 8f3d e2cb 593d e8d3 453b
00000020: 4d8a 8cba 116c aebb 257f 053d 1502 823c
00000030: e0a8 e7bb 3db8 e03c 09ac e63b fdad 8fba
00000040: 8bf0 3c3d a876 243d c77f 743c a7eb a23c
00000050: a90f 7f3c ac43 0fbc be21 9dbc afd5 20bc
00000060: c63a eebc a9ed 42bc 14a2 cebc ddf0 82bc
00000070: 354c e9bb f828 21bc 0828 b3bb a70d 8dbb
00000080: b145 79bc 4ead 77bb 972a b23c 59cd 25bd
00000090: 2966 1b3b 5bae 00bd 91df 883b ace6 393c
000000a0: cf78 b0bc 823c d2bc c32b 303d e98d 1fbc
000000b0: bf31 7b3c 44d4 6dbc 32f4 6b3c c29a 9439
000000c0: a465 46ba 5579 f8bb 2554 b0bc 7d22 1e3c
000000d0: 137f 9ebc 6792 b9bb 9bca 2bbb 93e2 a4ba
000000e0: 030a 7ebc 538d 3d3c 7076 93bb 4927 373c
000000f0: 94ba 953b aa9f 0abc 808e 26bd dd4b 58bc
00000100: 2818 873c 749e 81bc fa18 6439 ae22 c138
00000110: 5a35 343c 4fe0 223c 7342 8f3b 2e82 40bd
00000120: 0249 413c 234c aa39 4f4d 84bb 2a00 ee3a
00000130: 686a 703b 64e8 ca3c fdfa b63b 0ae5 143d
00000140: 8479 d83b 8b92 b7bb cd46 3d3c 9a33 55bb
00000150: 66a1 de3c 2f64 9fbb eca3 98b9 c60f 88bc
00000160: ce35 88bc dbe7 2d3c ec75 17bd f2a7 6dbb
00000170: 34a2 d3bc 8a1b c2bc a7b1 073c 6d9f 97bc
00000180: 4ae3 ecbc 6671 cabc b2bc 17bd 7e6d 19bb
00000190: 9b1b 58bc 5fdb 843c b60b a33c 8a29 653c
000001a0: 3d43 923b 25cf 0fbb 19f8 96bb d778 bb3c
000001b0: 8cb4 21bc cb3d acbb 6352 84bb d2ba c2bc
000001c0: 47d9 9ebc 4e63 8bb9 c33a 2739 5b07 3eba
000001d0: e8fa baba 7b83 96bb 0e45 8bbc 7997 21bc
000001e0: 7da1 9abb 8ee2 8ebc 45ae 963c 16f4 323c
000001f0: 3382 25bc bf36 cfbb e3ed 04bc 81d5 2bbb
00000200: 0697 06bc 8cc5 60bb 78a4 c5ba 4116 813a
00000210: fade 8fba 1023 393b 8b11 50bc d5b3 373b
00000220: 1518 353a 9ef3 d3bb 2c3b 043c 551f eabb
00000230: 76e9 823b b7fc acbb 9e8e b3ba 718d 783b
00000240: 6c76 5dbb 304d a5bb 146f 26bb 532c c0bb
00000250: fb04 a53a 8e79 7ebb f61f 5cbb e30d c43a
00000260: 82cc 113c e9e6 d0ba da82 363b 8808 73bb
00000270: 9cb1 22bb 3547 663a 8d69 88bb 3d49 b839
00000280: 8b24 85bb 1bb1 7bbb 9b89 323c dea8 323b
00000290: 3ac2 d3ba 0c81 f9bb 14b3 113c 4e3e 083c
000002a0: ace3 cabb c864 573a 0b1c 9f3b cf59 83bb
000002b0: afcc 883b fb58 8b3b a3da 873b 64c9 023b
000002c0: d4e2 093c 2deb 9dbb 6176 1fba 8068 b53a
000002d0: 23c2 e039 5758 243b fa96 2bbb deca b5bb
000002e0: d099 33bc c744 9d3b d2e1 73ba 868f 5bba
000002f0: fcba efbb f287 7cbb 1c20 23bb 2906 ef3a
00000300: 7488 cd3b 43b2 0dbc af2b 15bc 0c36 0cbb
00000310: 42e9 1f3b 89ae 053b a07e 63bb 994d b6bb
00000320: 3127 11ba bf7d 653c 06a0 003c 5e1f ffbb
00000330: eb5e 913a 058d 6dbc 051e 0a3a 49bf a53c
00000340: c5ab 53bc 4c96 afbb e017 02bc 8e9b eeba
00000350: 72a0 d23b 131f 4bbc a8bb babb 5e4e 973b
00000360: 1626 4a3c 3a82 a8bb 2799 75bc 927c 78bc
00000370: 5424 1abc a28d 81bc b537 99bc 8240 90bc
00000380: ee00 aabb cc03 34bc 4d91 d3b9 04b7 ef3a
00000390: a513 f13b 9045 6ebc 34be e8bc fb30 bb3c
000003a0: b865 863c 8ac3 d93c 7b8d e4bc 50da 073c
000003b0: 077c 2c3d 6261 8d3c 141d db3b a950 adbc
000003c0: 7685 36bc 81f2 02bc cd68 883c 1f97 0ebc
000003d0: 7449 053a ae8c 993c 80b8 e53c 5637 923c
000003e0: c005 c6bc ab35 6ebc e5be d8bc cc2b 8a3b
000003f0: 5364 023d a252 9ebc f221 98bc fa97 393d
-0.010520786 0.046232283 0.014409438 0.05982847 0.041843582 0.0702594 0.053172953 0.003018612
-0.0010722369 -0.005322941 0.032591958 0.015870133 -0.007069692 0.027431602 0.007039551 -0.0010961887
0.046127837 0.040152222 0.014923043 0.019887758 0.0155676985 -0.008744162 -0.019181129 -0.009816571
-0.02908076 -0.011897483 -0.02522377 -0.015983993 -0.0071196803 -0.009836428 -0.0054674186 -0.004304606
-0.01521437 -0.0037792507 0.021748824 -0.040479038 0.0023712015 -0.03141628 0.004177042 0.0113465
-0.021541981 -0.025663618 0.043010484 -0.009738424 0.015331685 -0.01451594 0.014401482 0.00028344063
-0.0007568246 -0.0075828233 -0.021524498 0.009651777 -0.019347703 -0.0056632045 -0.0026213292 -0.0012579731
-0.015505317 0.011569339 -0.004500203 0.0111788 0.004569361 -0.008460918 -0.040663242 -0.013201681
0.01649101 -0.015822627 0.00021753079 9.209417e-05 0.010999048 0.009941175 0.004371935 -0.04699915
0.011797192 0.00032481653 -0.004037536 0.0018158008 0.0036684517 0.024769016 0.0055841194 0.03635124
0.0066062827 -0.005602186 0.011552525 -0.0032531978 0.02717657 -0.0048642377 -0.0002911383 -0.016609084
-0.016627219 0.010614361 -0.036977693 -0.0036263433 -0.02583418 -0.023694772 0.008282102 -0.018508637
-0.028916974 -0.024712276 -0.03704519 -0.002341121 -0.013190175 0.016217886 0.019903045 0.013986954
0.004463582 -0.0021943536 -0.0046072123 0.02288477 -0.009869706 -0.0052563897 -0.0040381416 -0.023770723
-0.019390715 -0.00026586134 0.00015948252 -0.0007249021 -0.001426545 -0.0045933104 -0.017000701 -0.009862774
-0.004718958 -0.017442014 0.018393645 0.010922452 -0.010101843 -0.006323665 -0.008113357 -0.0026219788
-0.008214718 -0.0034297435 -0.0015078923 0.0009848551 -0.0010976486 0.0028249659 -0.012699495 0.0028030772
0.00069081906 -0.0064682504 0.008070748 -0.0071448484 0.003995116 -0.0052791494 -0.001369912 0.0037926103
-0.0033792509 -0.005044602 -0.0025395798 -0.005864659 0.0012589985 -0.0038829776 -0.0033588386 0.0014957752
0.008898856 -0.0015937957 0.002784899 -0.0037083942 -0.0024825102 0.00087844144 -0.0041629733 0.00035149782
-0.004063194 -0.0038405124 0.0108970655 0.0027261297 -0.0016155906 -0.0076142605 0.008892793 0.008315636
-0.0061916914 0.00082166167 0.004855638 -0.0040085088 0.004174791 0.0042525507 0.0041459366 0.0019956464
0.008415896 -0.004819295 -0.00060830085 0.0013840348 0.00042869253 0.0025077069 -0.0026182518 -0.0055478653
-0.010961965 0.0047994587 -0.0009303364 -0.00083755737 -0.0073159914 -0.0038533178 -0.0024890965 0.0018236089
0.00627237 -0.008648458 -0.009104653 -0.002139452 0.0024400507 0.002039822 -0.0034712926 -0.0055634496
-0.0005537151 0.014007031 0.007850653 -0.0077857217 0.001109091 -0.014498954 0.00052687555 0.020232813
-0.012919371 -0.005358493 -0.007940263 -0.0018204318 0.006427818 -0.012397545 -0.00569864 0.0046174964
0.012338182 -0.0051424773 -0.014990128 -0.015166419 -0.009408075 -0.015814606 -0.018703321 -0.017608885
-0.005188099 -0.010987233 -0.00040353314 0.0018288796 0.007357078 -0.014542952 -0.028411008 0.022850504
0.016405925 0.026582498 -0.027899494 0.008291796 0.04211047 0.01725835 0.006686816 -0.021156626
-0.011140218 -0.007992388 0.016651535 -0.008703022 0.0005084493 0.01874384 0.028042078 0.017848652
-0.024172664 -0.014539163 -0.026458213 0.004216647 0.031833958 -0.019326512 -0.018570874 0.04531095

bias f4 [32]
00000000: 57ac d9bc d1dc fdbc e85f 19bd 7ef1 b1bc
00000010: 31d9 3bbc 8538 57bc c426 4a3c 7d12 3cbc
00000020: 8cb2 963c 2c4a cdbc fc20 35bd 95cb b23c
00000030: 0367 d03b 7e60 ce3b bac6 923a c2bb 6e3c
00000040: 8668 16bd 6981 783c a6fc e8bb a5be 163b
00000050: 1d95 873c 013a 203b aab0 133a 03fb 1f3c
00000060: bd89 96bc 3e7b 1c3c 46fc 2c3c f41b 80bd
00000070: 7e51 0cbc 21af 2bbd 870c e23b c616 c0bc
-0.026571436 -0.030989083 -0.03744498 -0.021721598 -0.011465357 -0.013136034 0.012338344 -0.011479017
0.018395685 -0.025059782 -0.04422091 0.021825591 0.006359936 0.006298124 0.0011198141 0.014571132
-0.036720775 0.015167573 -0.007110196 0.0023001817 0.016550595 0.0024448636 0.000563393 0.009764436
-0.018376226 0.009550868 0.010558194 -0.06255332 -0.008564351 -0.041915063 0.006898466 -0.02344836

weight f4 [32, 32, 5, 5]
00000000: 985f cfbb 04b3 b3bb 7471 7f3b 099a 133c
00000010: a803 9e3b 287c d23b 1f94 573b 331e 073b
00000020: 679d a0b9 0a7f 053c 0d5b 9c3b 5f75 af3b
00000030: 9cff 183c 88ba 0f3c 9ead c93b ad6a 213b
00000040: f136 b43b d6f9 763b 464f 103b 632f 15ba
00000050: 25dd 5bbb b3f3 aeba 3b33 ec3a 41e1 b5ba
00000060: 2dfe 47bc 25a6 483b 2883 4d3c 5ce9 963c
00000070: fe27 1f3c dfef 2f3c 89cf ca3b eb12 09bc
00000080: 1eb2 ee3b ebcf 383c e1da 0a3c 399b 303c
00000090: fef5 533b 5eb1 cc3c 259b f43b adbd 553c
000000a0: 7cf8 783c 3558 08bc 8c71 14bc 40c9 14bc
000000b0: 7ebd c5ba e9e8 6c3b f38b 0abc 182b c6bc
000000c0: e25c 19bc dd2c a339 0550 8b3b e8b1 9e3b
000000d0: 7587 763c 0723 253c f9b5 d23a cd13 a03c
000000e0: 896a a33b aa7c 5b3c 29e4 c53b a268 dc3b
000000f0: ac9e 773c e28a b63c 8eab e6bb 8b46 8abc
00000100: bf37 4e3c f431 7cbb 443f 373c a2aa 8b3b
00000110: 5e75 703c 7759 833c efd7 d33b b9da 9b3c
00000120: 3a66 213c d24b a33c b3c4 373c 0f2f ce39
00000130: 9f6a 2f3c 74f0 493c ff51 dbbb 7190 49bb
00000140: d2b8 8d3b acd2 953c d876 773c f7a5 ed3b
00000150: 4e08 48bc 264e 1abc e77a 323b 3a86 f73b
00000160: 1008 bfbb 38b7 7d3a 7165 f0ba 67bb ee3b
00000170: 64a5 033c 7e07 a83c e969 2e3c 9c29 65bb
00000180: de3f 5b3c 981a 6e3c 5afa a83b a81c ba3c
00000190: a3f7 873b 7c42 cd3a 9118 343c 1d51 883b
000001a0: d158 763b 9c75 823b 48f5 a0b9 d43a 453b
000001b0: 87b9 833b 90e1 413c f60f 513b db23 d0b8
000001c0: 6bc8 1c3b 4aa9 20bb 73a4 9e3b 6c14 30bb
000001d0: 2e98 87bb 4fe2 34bb 4e13 84bb e487 abba
000001e0: 802c 3abb 2528 bfbb 7957 8bbb b8eb 07b7
000001f0: cdd0 fa3b 9896 aaba 75a3 04bb 1668 f6ba
00000200: f030 2c3a b415 a4bb 19d0 133b fa80 c03a
00000210: 2d59 c13b ed98 bb3a 56df e438 534a f3ba
00000220: 32e1 84bb 89f6 dabb b32b 853a 2e78 a239
00000230: 0599 4dbc db0b f7bb df25 36bc 0a07 10bc
00000240: c213 23bb 9dcb 253b fd7f a8bb 5c0f deb9
00000250: 0010 013b 505c c13a d469 a0bc d63b e8bb
00000260: 1bfc f73b be5f 22bc d41b 193b 6e1a 16bc
00000270: a4b6 ba3c 82d1 62ba 8c18 4c3b 7f34 10bc
00000280: 2c2a 033b d8fc 97bc d18c 973a d8bc 6ebc
00000290: 2ad1 9dbb de13 97bb ccff bd3b 79ea 2abc
000002a0: 2c88 293b bd3d 05bc af2c af3b ca97 823a
000002b0: b765 563c 8330 a23c 09fd 473c ef77 5ab8
000002c0: d5a5 8bba 5d59 4abb 8edb 3ebb 340c 8a3a
000002d0: d320 243c 8e9d 2bbc 1e1c 893a 64f6 403b
000002e0: 69aa fabb 028e 803b 3e1a 18bc 0023 af3c
000002f0: d31d 4f3b df5c 1b39 eaa8 973c 157d 243c
00000300: 89f8 463c 867b 5b3a 34f7 183c 90f7 233c
00000310: 62d8 1e3c ef6e bf3c efa1 e73b aa5e 7a3c
00000320: ca90 a4bb 8f98 203c 31e6 d5bb 02ad 53bc
00000330: 5660 abba 9880 1cbc 832d b2bb 88af b83b
00000340: 56d4 853c ec78 4cbb 1fb6 c43a f4d4 e73b
00000350: 6cc4 c2ba 575d ba3c 7bd5 8d3b d1bf 263c
00000360: 9430 d73b b9e1 50ba f0fc c8bb 001b c3bc
00000370: 85d4 b23b 1f34 41bb e937 2cbc 2299 c2bb
00000380: 44ef 94bc f62c 5e3a 04e9 6bbc f03e 03bc
00000390: 573b 4fbc 021e c2bb fb3e 2abc 33e9 073b
000003a0: 69b6 423b c713 51bb 578b b0bb 3039 f6ba
000003b0: d1a5 9e3b 0b54 46bc 2460 293c a3ba 2f3b
000003c0: f554 45bb 908c e43b 0983 663a 0102 f5bb
000003d0: 9b02 9a3b 0e28 cfbb ae9b 063c 1a0f 9e3b
000003e0: 7567 153c 18e2 59bb e572 c9bc 3ed2 07bd
000003f0: ff2e 93bc 827d 08bd 97db 19bd cfd0 693a
-0.0063285343 -0.005483987 0.0038977535 0.009008893 0.004822213 0.006423492 0.0032894684 0.0020617365
-0.00030634852 0.008147964 0.0047715963 0.005354568 0.009338286 0.0087725 0.00615473 0.0024630234
0.0054997136 0.0037685535 0.0022019907 -0.000569096 -0.003354856 -0.0013347775 0.0018020639 -0.0013876335
-0.012206596 0.0030616608 0.012543477 0.018421821 0.009714125 0.010738342 0.006189291 -0.008366327
0.007284417 0.01128004 0.008475036 0.010779195 0.0032342668 0.024986919 0.0074647837 0.0130457105
0.015195962 -0.008321811 -0.009060275 -0.009081185 -0.001508638 0.0036149567 -0.008456218 -0.02419047
-0.009360524 0.00031123208 0.0042514824 0.0048429854 0.015046944 0.010079152 0.0016075961 0.019540692
0.004987065 0.013396421 0.0060391617 0.0067263404 0.015113514 0.022283021 -0.007039494 -0.01687934
0.012586533 -0.0038481923 0.011184517 0.0042622844 0.01467642 0.016033871 0.0064649503 0.019025194
0.009851033 0.019933615 0.01121633 0.00039326443 0.010706573 0.012325395 -0.0066931243 -0.003075626
0.004325011 0.018288933 0.015104018 0.0072524506 -0.012209011 -0.009418046 0.00272339 0.007553843
-0.0058298185 0.0009678486 -0.0018340779 0.0072855237 0.008035038 0.020511385 0.010645368 -0.0034967428
0.013381926 0.014532708 0.0051567974 0.022718742 0.0041493936 0.0015660073 0.010992185 0.00416006
0.003758956 0.0039813053 -0.00030700327 0.0030094879 0.0040199193 0.011833563 0.0031900383 -9.9248915e-05
0.002392317 -0.0024514967 0.004841381 -0.002686764 -0.0041380143 -0.002760071 -0.0040306216 -0.0013086763
-0.0028407872 -0.005833643 -0.004252371 -8.10151e-06 0.0076542855 -0.0013014851 -0.002023903 -0.001879933
0.00065685716 -0.00500747 0.0022554456 0.0014686876 0.005900523 0.0014312543 0.00010913487 -0.0018561579
-0.0040551657 -0.0066822213 0.0010160118 0.0003098859 -0.01254869 -0.007539255 -0.011117428 -0.008790741
-0.0024883603 0.0025298365 -0.0051422105 -0.00042354583 0.0019693375 0.0014752243 -0.019581713 -0.007087211
0.007567895 -0.009910522 0.0023362534 -0.009161575 0.022792168 -0.0008652435 0.003114256 -0.008801579
0.002001415 -0.018553182 0.0011562352 -0.014571391 -0.004816194 -0.0046105227 0.0057983156 -0.010431879
0.0025868518 -0.008132395 0.005345903 0.000996345 0.013085774 0.019798523 0.012206324 -5.2086947e-05
-0.001065428 -0.0030876019 -0.0029122564 0.0010532201 0.0100175915 -0.010474576 0.001046065 0.0029443735
-0.007649709 0.0039231787 -0.0092836 0.021378994 0.003160347 0.00014816549 0.018513162 0.0100395875
0.012144216 0.00083725934 0.009336282 0.010007754 0.009695144 0.023368327 0.0070688645 0.015281359
-0.005022143 0.009801998 -0.006527685 -0.012919666 -0.0013074975 -0.0095521435 -0.0054375543 0.0056361593
0.016336601 -0.0031200005 0.001500789 0.0070749465 -0.0014859564 0.022749586 0.0043284274 0.0101775685
0.0065670703 -0.00079682056 -0.006133668 -0.023816586 0.005457463 -0.002948053 -0.010511377 -0.005938665
-0.018180497 0.00084753276 -0.014398817 -0.008010611 -0.012648425 -0.0059239874 -0.010390992 0.0020738363
0.0029710776 -0.0031902657 -0.0053877044 -0.0018785354 0.004841544 -0.012104998 0.010337863 0.0026814125
-0.0030110453 0.006974764 0.00087933295 -0.0074770455 0.0047000176 -0.0063219136 0.008215828 0.0048235776
0.009118904 -0.0033246335 -0.024590919 -0.033159487 -0.017966745 -0.03332282 -0.037562933 0.00089193595

bias f4 [32]
00000000: 92c3 f6ba 486f 1abb 6b8a c2bb 09c7 293b
00000010: d6ac d0bb 6277 c139 b16e c5bc 6ba9 15ba
00000020: 54c0 4e3c 7f35 b5bb 7e61 0fbc 4074 a4bc
00000030: c8bc 3bbc 52e6 acbb 5476 553c c2bd c7bc
00000040: f19c 5d3c 4571 05bb 32e2 54ba 6282 0cba
00000050: 3284 f23c 5710 f83b a967 2cbc 7045 20ba
00000060: 9a78 8eba f8cb d03b 0fb9 c0bb 27ff 8ebb
00000070: eb5e 98bc 667e 423c 6d16 dbbc cf66 493c
-0.0018826595 -0.0023564864 -0.005936911 0.0025905988 -0.00636826 0.00036900776 -0.024100633 -0.0005709144
0.012619097 -0.005530059 -0.008751271 -0.020074964 -0.011458583 -0.0052764798 0.0130287 -0.024382476
0.013526187 -0.0020361703 -0.0008120864 -0.0005360005 0.029604051 0.0075703072 -0.010522761 -0.00061138626
-0.0010869682 0.006371971 -0.0058814357 -0.0043639126 -0.018599948 0.011870956 -0.026744092 0.012292578

weight f4 [1, 32, 5, 5]
00000000: eb81 ccbc 953f 9cbc 4a6f 7ebc 86dc b2bc
00000010: 7228 b63a 708f f4bc 9f85 443c 6afd 183c
00000020: 5081 8d3a 097e 2c3c 9718 7b3c 713e de3c
00000030: 17c0 993c 4119 0bbc c0e9 0cbb f4a1 2f3c
00000040: f096 3fbc faff 523b 7c4d 813c 7512 88bc
00000050: b02b 963c c8c5 af3a 86ea f0bc 026d 9c3c
00000060: 1ae5 d63b ec8a 9dbc d4d2 213c 6f71 79bc
00000070: e2f4 07bc b180 fabb 54d7 323c 810f a53b
00000080: 94ae 13bc db63 d13c cb90 50bb 98bb a3bc
00000090: e389 a5bb b56b 72bc dc41 343d 2f9a 0a3d
000000a0: e3f9 c8bb b584 643c 7df6 8a3b d368 3a38
000000b0: 7057 a7bc 47e7 813c 3193 35bc 3e2c 8ebc
000000c0: 1b78 a73c 5a61 983c fd0a 423c b132 893a
000000d0: a9cf f1ba 02dc a0bc ad46 a43a 3d50 1ebc
000000e0: a6c3 03bc 80eb b73b e0d1 c73c b77e 5c3c
000000f0: eea2 e73b f477 55bc 84e3 2b3c 008f 223c
00000100: 9db5 3a3c fbbd 92bc 0cbf 74bc ee72 b7bc
00000110: 530e cebc 1376 fb3c 450b aebc 652b be3b
00000120: 00fb b43c 9505 c6bc 7b90 a53c 406b 7ebc
00000130: 4a2e 1c3c c872 1bbb 846e a239 5745 b53c
00000140: 25ac a93c b1af cc3c 3119 b7bc cc92 4fbc
00000150: 48cc e13b 12be 323b 8d94 893a 2f39 b63c
00000160: 7129 d3bb 5d68 67bc 186e 9fbc 6e5b ac3c
00000170: d0ac 8abc e217 9bbc 76a2 0039 abae 98bc
00000180: c34f b9bb 682c c53b 598d 0e3c 69d0 8fbb
00000190: 6234 7d3b 0854 963c eaa2 803c f924 d63b
000001a0: e931 bbbb 0955 4c3c cf4a 73bc 660b 0b3d
000001b0: 000f b0bc 0699 e5bc fb85 4cbc c770 60bb
000001c0: 7891 cb3b be40 863c d9c7 843c 80e0 febc
000001d0: ead5 67bb 2353 cc3c a160 09bc c171 36bc
000001e0: 58ac 9b3c 56c8 4abc dc2f ba3c 34f2 c6bc
000001f0: fa46 4d3b 1219 72bb f240 feba f98e fb3b
00000200: da6b 4b3c 9882 95bc b52c 8cbb 1619 4abc
00000210: 97be 8fbc ea0c 93bc 91d0 733c ea28 003c
00000220: 0e04 d4bb 9194 fa3c af06 1a3a 8556 bd3c
00000230: c00a bdbc c776 0cbc 6ef1 abba 622c 36bc
00000240: 3905 353d f435 1bbc 32ba 0139 8b2c a7bb
00000250: b71c 653c 5b10 3ebc 4f86 203d 03ea 30bc
00000260: 818e 963c a863 98bb b93d e53c e0f8 083b
00000270: 0dd8 a3bc e787 b73c c0ea d3bb 7fcb c1bb
00000280: b392 f73c 6f7f d6bc 76e2 aa3c 3c08 ec3c
00000290: d3ec 29bb 130b 273c 73bf 6f3c 0ff4 b23c
000002a0: 253a f5bb a213 50bb 4171 163d 1e1e 00bb
000002b0: c077 7dbc 3830 073d 145b c03c 866e 3d3b
000002c0: e678 313c 209d d73a 7bd4 44bc 17cf 8d3c
000002d0: 1f22 833c 32b4 9bbc f15b a6bb 79aa 883c
000002e0: 2207 82ba bb60 acbc 9fe4 a8bb b2a6 42bc
000002f0: ff1a b13c 245a 063c 6cf1 e83c 9948 6f38
00000300: 8e88 eabb 6e4d ae3b 2018 94bc 1260 6fba
00000310: ad99 4bbc 7b44 8f3c a755 f6bc 6c97 95bc
00000320: 2a9e dabc d36b 823b 9108 a13c 5c1b f23b
00000330: 1b2a d63b 878d 633c a23b a9bc 3cd5 0abc
00000340: e8a1 0abd 1c1f f23c 759c f9bc 047c 8c3b
00000350: 64c8 ea3c 8489 bcbc 9712 aa3c 2518 8c3c
00000360: 094f 073c 6f08 e83c adb7 383c 3ecd 1ebc
00000370: 8395 e1bc f01e af3c d147 733b e88d bdbc
00000380: 64c3 83bc 751f 8fbb 9f16 4b3c fc62 aa3c
00000390: b4f3 a33b 0fff 31bb 2cca 17bc 0776 0cbc
000003a0: cd5e 72bc d24f 94bc de3c 1fbc 8489 8f3c
000003b0: 7a3c 6d3c ead7 95bc 4980 4fbc e5f6 783c
000003c0: 7886 ebbb 68d0 413c 35a1 9ebb 4572 58bc
000003d0: 9a59 41bc 2885 523c 21f0 b93c 3018 debc
000003e0: 5cba 713c 2b90 603c 2813 57bb 00dc c43c
000003f0: c1f0 63bc f36d 18bd 26c9 4cbb e721 103d
-0.024964293 -0.019073287 -0.015529463 -0.02183367 0.0013897552 -0.029853553 0.011994748 0.009337762
0.0010795984 0.010528096 0.015325687 0.027129384 0.018768353 -0.008489908 -0.002150163 0.010719765
-0.011693701 0.003219603 0.015784018 -0.016610363 0.018331379 0.0013410384 -0.029408704 0.019094948
0.0065580728 -0.019231282 0.0098769255 -0.015224799 -0.008298131 -0.0076447357 0.010915596 0.0050372486
-0.009013791 0.02556031 -0.0031824585 -0.019986913 -0.005051838 -0.014796187 0.04400812 0.033838447
-0.0061333044 0.013947655 0.0042408095 4.444348e-05 -0.020427436 0.015857352 -0.011082456 -0.01735508
0.020443013 0.018601108 0.01184344 0.0010467378 -0.0018448728 -0.019636158 0.001253327 -0.009662685
-0.008042252 0.0056127906 0.024392068 0.013457946 0.0070689833 -0.013029087 0.010491256 0.009921789
0.011395839 -0.017912855 -0.014938127 -0.02239367 -0.025153315 0.03069595 -0.021245608 0.005803513
0.022092342 -0.024172584 0.020210495 -0.0155285 0.009532521 -0.0023719538 0.00030981388 0.02212779
0.020711968 0.02498612 -0.02235088 -0.012669276 0.0068908073 0.0027273935 0.0010496542 0.022244064
-0.006444149 -0.014124003 -0.019461676 0.02103969 -0.016928107 -0.018932287 0.00012267553 -0.018637976
-0.0056552603 0.0060172565 0.008700692 -0.004388858 0.003863596 0.018350616 0.015702683 0.006535169
-0.005712737 0.012471446 -0.014849379 0.033946417 -0.021491528 -0.028027069 -0.012483115 -0.0034246908
0.0062124096 0.016388293 0.016208576 -0.03111291 -0.0035375305 0.024941986 -0.0083848545 -0.0111355195
0.019003078 -0.012376865 0.0227279 -0.024285413 0.0031322823 -0.0036941213 -0.0019398017 0.007676956
0.012415851 -0.018250749 -0.0042777904 -0.0123350825 -0.017546935 -0.017950494 0.014881269 0.007822255
-0.00647021 0.03058842 0.000587563 0.023112545 -0.023076415 -0.008573241 -0.0013118216 -0.01111898
0.044194434 -0.009473313 0.00012371762 -0.0051017455 0.013983897 -0.011600579 0.039190587 -0.01079798
0.018378498 -0.004650552 0.027983533 0.0020900294 -0.020000482 0.02240367 -0.0064671934 -0.005914151
0.030221319 -0.026183812 0.020859938 0.02881252 -0.0025928512 0.010195511 0.014633047 0.021844892
-0.007483738 -0.0031749983 0.0367291 -0.0019549201 -0.015470445 0.03300497 0.02348093 0.0028904988
0.010832047 0.0016450025 -0.01201355 0.017310662 0.016007481 -0.019006822 -0.0050768782 0.01668285
-0.0009920339 -0.021042218 -0.005154207 -0.011880564 0.021619318 0.008200202 0.028435431 5.7049652e-05
-0.007157392 0.005319289 -0.01807791 -0.0009131442 -0.012426776 0.017488709 -0.03007014 -0.01826068
-0.026686747 0.003980139 0.019657405 0.0073885154 0.006535781 0.013888723 -0.020658318 -0.008473691
-0.033845812 0.02955585 -0.030470112 0.0042872448 0.028660007 -0.023014791 0.020760817 0.017101357
0.00825859 0.028324334 0.0112742605 -0.009692488 -0.027537113 0.021377057 0.0037121663 -0.023138955
-0.01608438 -0.0043677636 0.01239553 0.020799153 0.005003417 -0.0027160083 -0.00926451 -0.008573062
-0.01479311 -0.018104468 -0.009719102 0.017521627 0.014479751 -0.018291432 -0.012664863 0.015195583
-0.007187661 0.011829473 -0.0048409947 -0.013210838 -0.011801148 0.01284913 0.02269751 -0.027111143
0.014753904 0.013706247 -0.0032817814 0.024030685 -0.013912381 -0.03721423 -0.0031247823 0.03518858
